…
ght 파일은 약 27MB 정도의 크기다. 그에 반해 yolov4는 244MB 이다. Yolov5 ArchitectureBackbone and Head크게 Backbone과 Head가 있다.yolov5가 빨라진 이유는 backbone의 변화의 영향이 가장 크다.backbone의 경우, image로부터 feature map을 추출하는 부분인데, Yolov5는 DarkNet을 사용하고, CSPNet, 그 중에서도 BottleneckCSP를 사용했다.CSPNet는 CNN의 학습 능력을 향상시키는 방법으로 이 블로그에 잘 설명되어 있다.그리고, yolov5는 4가지로 나눌 수 있다. s,m,l,x 는 각각 small,medium, large, xlarge 에 해당한다.Head의 경우, 추출된 feature map을 바탕으로 물체의 위치를 찾는 부분이다. Anchor box를 통해 bounding box를 예측한다. v3와 동일하게 3가지의 scale에서 바운딩 박스를 생성한다. 그 후, 각 scale마다 3개의 anchor box를 사용하기에 총 9개의 anchor box를 만들게 된다. from n params module arguments 0 -1 1 3520 models.common.Focus [3, 32, 3] 1 -1 1 18560 models.common.Conv [32, 64, 3, 2] 2 -1 1 19904 models.common.BottleneckCSP [64, 64, 1] 3 -1 1 73984 models.common.Conv [64, 128, 3, 2] 4 -1 1 161152 models.common.BottleneckCSP [128, 128, 3] 5 -1 1 295424 models.common.Conv [128, 256, 3, 2] 6 -1 1 641792 models.common.BottleneckCSP [256, 256, 3] 7 -1 1 1180672 models.common.Conv [256, 512, 3, 2] 8 -1 1 656896 models.common.SPP [512, 512, [5, 9, 13]] 9 -1 1 1248768 models.common.BottleneckCSP [512, 512, 1, False] 10 -1 1 131584 models.common.Conv [512, 256, 1, 1] 11 -1 1 0 torch.nn.modules.upsampling.Upsample [None, 2, &#39;nearest&#39;] 12 [-1, 6] 1 0 models.common.Concat [1] 13 -1 1 378624 models.common.BottleneckCSP [512, 256, 1, False] 14 -1 1 33024 models.common.Conv [256, 128, 1, 1] 15 -1 1 0 torch.nn.modules.upsampling.Upsample [None, 2, &#39;nearest&#39;] 16 [-1, 4] 1 0 models.common.Concat [1] 17 -1 1 95104 models.common.BottleneckCSP [256, 128, 1, False] 18 -1 1 147712 models.common.Conv [128, 128, 3, 2] 19 [-1, 14] 1 0 models.common.Concat [1] 20 -1 1 313088 models.common.BottleneckCSP [256, 256, 1, False] 21 -1 1 590336 models.common.Conv [256, 256, 3, 2] 22 [-1, 10] 1 0 models.common.Concat [1] 23 -1 1 1248768 models.common.BottleneckCSP [512, 512, 1, False] 24 [17, 20, 23] 1 229245 Detect [80, [[10, 13, 16, 30, 33, 23], [30, 61, 62, 45, 59, 119], [116, 90, 156, 198, 373, 326]], [128, 256, 512]] Model Summary: 191 layers, 7.46816e+06 parameters, 7.46816e+06 gradients이는 yolov5의 전체 architeture 을 나타낸 것이다.i가 0~9 까지가 backbone 10~24가 head 이다.Backbonemodel Bottleneckclass BottleneckCSP(nn.Module): # CSP Bottleneck https://github.com/WongK
…
False]], # 13 [-1, 1, Conv, [256, 1, 1]], [-1, 1, nn.Upsample, [None, 2, &#39;nearest&#39;]], [[-1, 4], 1, Concat, [1]], # cat backbone P3 [-1, 3, BottleneckCSP, [256, False]], # 17 (P3/8-small) [-1, 1, Conv, [256, 3, 2]], [[-1, 14], 1, Concat, [1]], # cat head P4 [-1, 3, BottleneckCSP, [512, False]], # 20 (P4/16-medium) [-1, 1, Conv, [512, 3, 2]], [[-1, 10], 1, Concat, [1]], # cat head P5 [-1, 3, BottleneckCSP, [1024, False]], # 23 (P5/32-large) [[17, 20, 23], 1, Detect, [nc, anchors]], # Detect(P3, P4, P5) ]# yolo.py result (YOLOv5-s&#39;HEAD) i from n params module arguments 10 -1 1 131584 models.common.Conv [512, 256, 1, 1] 11 -1 1 0 torch.nn.modules.upsampling.Upsample [None, 2, &#39;nearest&#39;] 12 [-1, 6] 1 0 models.common.Concat [1] 13 -1 1 378624 models.common.BottleneckCSP [512, 256, 1, False] 14 -1 1 33024 models.common.Conv [256, 128, 1, 1] 15 -1 1 0 torch.nn.modules.upsampling.Upsample [None, 2, &#39;nearest&#39;] 16 [-1, 4] 1 0 models.common.Concat [1] 17 -1 1 95104 models.common.BottleneckCSP [256, 128, 1, False] 18 -1 1 147712 models.common.Conv [128, 128, 3, 2] 19 [-1, 14] 1 0 models.common.Concat [1] 20 -1 1 313088 models.common.BottleneckCSP [256, 256, 1, False] 21 -1 1 590336 models.common.Conv [256, 256, 3, 2] 22 [-1, 10] 1 0 models.common.Concat [1] 23 -1 1 1248768 models.common.BottleneckCSP [512, 512, 1, False] 24 [17, 20, 23] 1 229245 Detect [80, [[10, 13, 16, 30, 33, 23], [30, 61, 62, 45, 59, 119], [116, 90, 156, 198, 373, 326]], [128, 256, 512]]head 또한 from number module arguments 로 구성되어 있다.{conv,upsample,concat,bottleneckCSP}가 한 불록이다. 이 블록이 총 4개 있는 것이고, 마지막 detect 부분으로 연결된다.Concat여기서 concat의 의미는 바로 전 층인 nn.upsample 층과 bottleneckCSP 층과 결합시키는 것이다.첫번째 concat 부분은 backbone의 P4(i=6인 Bot
…
